Neural_Process/regression/model.pt (torch, 538467 bytes, 20 tensors)

xy_to_r.input_to_hidden.0.weight f4 [128, 2]
0	0x3e4e9379	0.20173444
1	0x3cbc8d68	0.023016647
2	0xbf331142	-0.6994821
3	0x3f06ee0f	0.52707
4	0xbee243e8	-0.44192433
5	0xbde7ce2e	-0.113186225
6	0xbeee9d89	-0.46604565
7	0xbee844a6	-0.45364875
8	0x3e22a7ec	0.1588437
9	0xbddca2a0	-0.10773206
10	0xbe8d7a20	-0.27632236
11	0xbf1a7888	-0.60340166
12	0x3ec89248	0.39174104
13	0x3dc0950e	0.0940343
14	0xbe76dbd7	-0.241073
15	0x3eae1209	0.33998135
16	0xbe9f7cd0	-0.31149912
17	0x3f0104f1	0.50398165
18	0x3f21015e	0.6289271
19	0x3f46394c	0.7743118
20	0x3ec87bf7	0.39157078
21	0xbf07250c	-0.52790904
22	0xbeecbc29	-0.46237305
23	0x3f16387f	0.58679956
24	0xbe69de92	-0.2283881
25	0xbf409697	-0.7522978
26	0xbf17dbc6	-0.5931972
27	0xbe0acaaa	-0.13553873
28	0xbeb99be3	-0.36251745
29	0x3ef89ad1	0.48555616
30	0xbe37962b	-0.17928378
31	0xbd02af2d	-0.031905342
32	0xbf00f69a	-0.50376284
33	0xbf4035bd	-0.75082
34	0x3ec5e121	0.38648322
35	0x3e9e08bb	0.30866036
36	0x3eadd29e	0.3394975
37	0xbe95cfc8	-0.29260087
38	0x3f0952c7	0.53641933
39	0xbdfa1b68	-0.122122586
40	0x3d207505	0.0391741
41	0x3f2c216f	0.67238516
42	0x3ef5a447	0.47976896
43	0x3f42439e	0.75884426
44	0xbe57feaa	-0.2109324
45	0xbf3bfcc8	-0.7343259
46	0x3e563564	0.20918804
47	0x3ed8ea94	0.4236647
48	0xbec09bb9	-0.37618807
49	0x3f3d6679	0.73984486
50	0x3db90e00	0.090358734
51	0x3e88c596	0.26713246
52	0xbe7931ee	-0.24335453
53	0x3edee8a6	0.43536872
54	0x3e4de5a5	0.20107134
55	0x3f435e46	0.76315725
56	0x3effba30	0.49946737
57	0xbe9b6c74	-0.3035618
58	0xbf165ba1	-0.58733565
59	0x3e5469b9	0.20743455
60	0xbecb01e5	-0.39649883
61	0x3e702b40	0.23453999
62	0xbe2b8dcf	-0.16753314
63	0x3d64ddfc	0.055875763
64	0xbdba3f01	-0.09094048
65	0xbe5c80d4	-0.21533519
66	0xbf126f1d	-0.57200795
67	0x3e7f2715	0.24917252
68	0x3f33fb77	0.7030558
69	0xbf4d3cb8	-0.80170774
70	0xba124800	-0.0005580187
71	0xbe4ba674	-0.19887716
72	0xbe791b2e	-0.24326774
73	0xbf2745b3	-0.6534073
74	0x3f253dcb	0.64547414
75	0x3e0d0eb9	0.13775147
76	0x3eddf522	0.43351084
77	0x3de5e196	0.11224668
78	0xbf1e221b	-0.6177079
79	0xbef23443	-0.47305498
80	0xbef72850	-0.48272943
81	0xbd8e63ca	-0.06952627
82	0xbee0c58d	-0.4390072
83	0x3ec9b66f	0.39396998
84	0xbc955d39	-0.018232929
85	0xbf5b8fb2	-0.85766137
86	0x3f055e7f	0.52097315
87	0x3de5af40	0.11215067
88	0x3f09bc8d	0.5380333
89	0x3f2307b4	0.6368363
90	0x3f1a0467	0.6016297
91	0x3e1542a7	0.14576207
92	0x3ee27571	0.44230226
93	0xbf0af3fd	-0.54278547
94	0xbec2379a	-0.37933046
95	0x3ef2b87e	0.4740638
96	0x3f064172	0.5244361
97	0xbf0812c6	-0.53153646
98	0x3f0bc710	0.5460062
99	0xbf1f9d4e	-0.623494
100	0x3f15c6a6	0.5850624
101	0xbde06188	-0.109561026
102	0x3eb3fa93	0.3515211
103	0x3f40c76d	0.753043
104	0x3ef9a0c0	0.48755455
105	0xbe8a1625	-0.2697002
106	0xbeb4efb6	-0.35339135
107	0x3d57bdb5	0.052671153
108	0x3f2b664d	0.66952974
109	0x3f23b3a4	0.63945985
110	0x3eddf2fb	0.43349442
111	0xbe7c76af	-0.24654649
112	0xbe158fd3	-0.14605646
113	0xbe9d6086	-0.30737704
114	0xbf2e4296	-0.6807035
115	0x3e14c5b7	0.14528547
116	0xbed66b39	-0.4187868
117	0xbf18d574	-0.59700704
118	0xbeea40e0	-0.4575262
119	0xb94811b4	-0.00019080081
120	0x3e4f643d	0.20253082
121	0xbf0716a6	-0.52768934
122	0x3f145f98	0.57958364
123	0xbf3192c4	-0.6936457
124	0x3e3e9094	0.1860984
125	0x3cfd1344	0.030892976
126	0x3c50c700	0.012742758
127	0xbddddb78	-0.10832876
128	0x3e82c7fc	0.255432
129	0xbf632864	-0.88733506
130	0xbe58abb5	-0.21159251
131	0xbf5c9405	-0.8616336
132	0x3f28bf7c	0.6591718
133	0x3e9c5d49	0.3053992
134	0x3bc42c00	0.0059866905
135	0xbedf578a	-0.43621475
136	0x3d9b0e81	0.07571126
137	0x3f61bc5e	0.8817805
138	0xbf235b1a	-0.63810885
139	0xbf5b3ec8	-0.8564267
140	0x3f210e26	0.62912214
141	0x3f130135	0.57423717
142	0x3f170c8c	0.5900352
143	0x3ee52cb3	0.44760665
144	0xbf124fb8	-0.5715289
145	0xbe9261f1	-0.28590348
146	0x3ee9770e	0.45598644
147	0xbf00bb19	-0.5028549
148	0x3f1437e0	0.5789776
149	0xbf07a03b	-0.5297887
150	0x3ee6d4f8	0.45084357
151	0xbf46e160	-0.77687645
152	0x3ea6edb8	0.3260324
153	0xbd85432b	-0.06506952
154	0x3eca8906	0.39557666
155	0xbf1b19d7	-0.60586303
156	0x3e2863c1	0.16444303
157	0xbf2a0a1d	-0.6642168
158	0xbe03085f	-0.12796162
159	0xbe7aff4d	-0.24511452
160	0xbe37872a	-0.17922655
161	0xbef785a1	-0.48344138
162	0x3e4d96f5	0.20077117
163	0x3e512c3d	0.20427032
164	0xbf1c8155	-0.61134845
165	0x3ed8c090	0.42334414
166	0x3b0f0f15	0.0021829058
167	0xbf1a7b01	-0.6034394
168	0xbe0dc8ea	-0.13846174
169	0xbde6fa9f	-0.11278271
170	0xbf293eab	-0.6611125
171	0x3f3a8584	0.7285998
172	0xbf27e6a7	-0.6558632
173	0xbe1c29b7	-0.15250288
174	0xbeb4e94b	-0.35334238
175	0x3f40d56a	0.75325644
176	0x3e51d200	0.20490265
177	0xbb5f8c00	-0.0034110546
178	0x3f25520a	0.64578307
179	0x3dc41706	0.09574704
180	0xbd6c9162	-0.057755835
181	0xbee59adc	-0.4484471
182	0xbed1a8ed	-0.40949193
183	0xbd8c0a50	-0.068379045
184	0x3decf90a	0.11570938
185	0x3f34d369	0.70635086
186	0x3e35f0e2	0.17767671
187	0xbe589d40	-0.21153736
188	0xbdb15477	-0.086586885
189	0x3f2f9649	0.6858869
190	0xbf0ac716	-0.5421003
191	0xbe95a5c5	-0.29228035
192	0x3e9c9192	0.3057981
193	0x3dc9a3b9	0.09845681
194	0xbf1b9d11	-0.6078654
195	0xbf34103c	-0.7033727
196	0xbdf8f320	-0.121557474
197	0xbe74b3c2	-0.23896697
198	0xbea7efbd	-0.32800093
199	0x3e308660	0.1723876
200	0xbddb2ecc	-0.10702285
201	0xbf06c667	-0.5264649
202	0x3e0a82fa	0.13526526
203	0xbf36debb	-0.7143361
204	0x3f15e37f	0.58550256
205	0x3f09365b	0.53598565
206	0x3eea7b4d	0.45797196
207	0x3d277c2a	0.040889896
208	0xbe413911	-0.18869425
209	0x3edd9956	0.4328105
210	0x3f393e60	0.723608
211	0xbe3ae9b8	-0.18253219
212	0x3eb76eb0	0.35826635
213	0xbdf041a2	-0.117312685
214	0x3d5c35f5	0.053762395
215	0x3f29f0b0	0.66382885
216	0x3dd97216	0.10617463
217	0xbb7edf20	-0.0038890317
218	0xbe5f1797	-0.21786343
219	0x3d6acac4	0.05732228
220	0xbec4398e	-0.3832516
221	0x3ed65212	0.4185949
222	0xbeab0a09	-0.33406094
223	0x3e651edd	0.22375055
224	0xbe457e0f	-0.19286369
225	0x3f49df30	0.7885618
226	0x3e81cdd7	0.25352356
227	0x3ec8d726	0.39226645
228	0xbe23afab	-0.15984981
229	0x3f305c25	0.688906
230	0x3e9fa9b3	0.31184158
231	0x3f344a30	0.704257
232	0x3e01962a	0.1265494
233	0xbecd1bb5	-0.400602
234	0x3ea8eb01	0.32991794
235	0x3dffe474	0.12494746
236	0x3f304b08	0.6886449
237	0x3df5c4fc	0.120004624
238	0xbec32ccb	-0.38120112
239	0xbcd90886	-0.026493322
240	0xbef9383f	-0.48675725
241	0x3eb31d04	0.34983075
242	0xbf2dce25	-0.67892677
243	0xbefc8e78	-0.49327445
244	0x3f345d06	0.7045444
245	0x3f235c56	0.6381277
246	0xbe4e794f	-0.20163463
247	0x3ea18201	0.31544498
248	0x3d12659d	0.035741437
249	0x3f322d91	0.6960078
250	0x3e8ca5fc	0.27470386
251	0xbc1ef05f	-0.009700864
252	0x3ee8b018	0.4544685
253	0x3f327ae3	0.6971876
254	0xbf250111	-0.6445475
255	0xbef77e4a	-0.48338538

xy_to_r.input_to_hidden.0.bias f4 [128]
0	0x3f2ff42b	0.68731946
1	0xbf058208	-0.52151537
2	0xbe5c6f50	-0.21526837
3	0x3dde45e6	0.10853176
4	0xbf1b72e0	-0.6072216
5	0xbf3723ed	-0.71539193
6	0xbe940298	-0.2890823
7	0x3dd1a88e	0.102372274
8	0xbe56cae9	-0.20975842
9	0xbe7defd9	-0.24798526
10	0x3e50d9c3	0.2039557
11	0xbe777810	-0.24166894
12	0xbec67e78	-0.38768363
13	0x3ea7e3d4	0.32791007
14	0x3ee56ff9	0.4481199
15	0x3e2bdf05	0.16784294
16	0xbee86aaa	-0.45393878
17	0xbe39a793	-0.1813033
18	0xbf3ffd88	-0.74996233
19	0xbe5f6956	-0.21817526
20	0x3e867f1d	0.26268855
21	0x3ea010f9	0.3126295
22	0xbf12d324	-0.57353425
23	0xbebda302	-0.37038428
24	0xbec9e35b	-0.3943127
25	0x3ebc1b46	0.36739558
26	0xbefc11f4	-0.49232447
27	0x3cb9faf5	0.022702673
28	0xbe97c391	-0.29641393
29	0xbf00e5e6	-0.503508
30	0xbf0e19cd	-0.5550812
31	0x3dc7dba5	0.09758691
32	0x3f147b65	0.58000785
33	0x3f2a6da7	0.66573566
34	0xbdea0a33	-0.114277266
35	0xbf1e1d96	-0.61763895
36	0x3f2660e3	0.6499159
37	0x3e3fa7ea	0.18716398
38	0xbf3b7bd9	-0.7323585
39	0xbe242e96	-0.16033396
40	0xbedb843b	-0.4287432
41	0x3c408b0e	0.011751903
42	0xbe9b9dfb	-0.30393967
43	0x3e70876c	0.2348916
44	0x3eed60e8	0.46362996
45	0x3eb34139	0.35010698
46	0xbe21d0ba	-0.15802279
47	0xbe415fc3	-0.18884186
48	0xbefbcd95	-0.49180284
49	0x3eef83b4	0.4678017
50	0x3e9caede	0.30602163
51	0x3e7f4ceb	0.24931686
52	0x3eec69fa	0.46174604
53	0xbef77fe7	-0.4833977
54	0xbeeb1c0f	-0.45919845
55	0xbe7a8fc4	-0.24468905
56	0x3e7b40e2	0.2453647
57	0xbf3fdd14	-0.74946713
58	0x3d955384	0.0729132
59	0xbf1e4d1f	-0.6183643
60	0xbf0bb0a4	-0.5456641
61	0x3e9236cd	0.28557435
62	0x3f19ae84	0.60031915
63	0xbf08ef93	-0.5349056
64	0xbf0f2bfa	-0.5592648
65	0xbe35b8c0	-0.17746258
66	0xbf398222	-0.7246419
67	0xbef2fa26	-0.47456473
68	0x3e1615eb	0.14656799
69	0x3e9a6a53	0.30159244
70	0x3ef79323	0.48354444
71	0x3ebc2b53	0.36751804
72	0xbee193eb	-0.44058165
73	0xbf0a1308	-0.5393529
74	0x3e2c929e	0.16852805
75	0x3f360500	0.7110138
76	0x3f0b38ec	0.5438373
77	0xbf30122f	-0.68777746
78	0xbf2bf511	-0.67170817
79	0x3f068137	0.52540916
80	0x3f356e2b	0.7087123
81	0xbed2040d	-0.41018716
82	0xbc709c52	-0.014685707
83	0x3b86f5f4	0.0041186754
84	0x3ef213bb	0.47280678
85	0xbe98ae10	-0.298203
86	0x3f2a486a	0.66516745
87	0xbf18a13d	-0.5962103
88	0xbf284bb6	-0.65740526
89	0xbf1ade17	-0.6049513
90	0x3f0ad440	0.5423012
91	0xbf2e77a0	-0.68151283
92	0xbd1cf281	-0.038317207
93	0xbd789d63	-0.06069697
94	0x3e8494a0	0.25894642
95	0xbf21263b	-0.6294896
96	0xbc849a91	-0.016186984
97	0x3ef65a82	0.48115927
98	0xbf217fc8	-0.63085604
99	0xbf1ab0eb	-0.60426205
100	0xbef778b5	-0.4833428
101	0xbed7f37c	-0.4217795
102	0x3f20d98b	0.62831944
103	0xbf17e481	-0.59333044
104	0x3dd85760	0.105635405
105	0x3de4feee	0.111814365
106	0x3f28e029	0.6596704
107	0x3e95a3ea	0.2922662
108	0x3f00172f	0.50035375
109	0x3f0b8dd9	0.5451332
110	0xbe369c4c	-0.1783306
111	0xbf3a9ce5	-0.7289565
112	0x3f11866a	0.56845725
113	0x3f2f6e63	0.6852781
114	0x3e8f2fc9	0.27966145
115	0x3ea6e500	0.32596588
116	0x3f081b81	0.5316697
117	0xbf30507c	-0.6887281
118	0xbef169f1	-0.4715114
119	0x3db33459	0.08750219
120	0xbdf1dbab	-0.118094765
121	0xbe09148e	-0.13386747
122	0xbe76308d	-0.24041958
123	0x3d626785	0.055274505
124	0x3ea1ab1c	0.3157586
125	0x3f1375d8	0.5760169
126	0xbe2aa248	-0.16663468
127	0xbebc4c73	-0.36777076

xy_to_r.input_to_hidden.2.weight f4 [128, 128]
0	0xbd2ce3c2	-0.042209394
1	0xbd42c16f	-0.047547754
2	0x3ad33180	0.0016112775
3	0x3cfdd5dc	0.030985765
4	0xbcf87912	-0.030331168
5	0x3da36741	0.079786785
6	0x3cb677a7	0.022273852
7	0x3b282f20	0.0025662854
8	0x3c6ae28c	0.01433624
9	0x3d21500a	0.03938297
10	0xbd26ba4e	-0.040705018
11	0xbd70b466	-0.05876579
12	0xbda5d71b	-0.08097669
13	0x3d31ccba	0.043408133
14	0xbd6bf3fe	-0.057605736
15	0xbd5ae486	-0.053440593
16	0x3a773100	0.0009429604
17	0xbda7780c	-0.08177194
18	0x3ce0a573	0.027422642
19	0xbb84dc66	-0.004054594
20	0xbb95a64c	-0.0045669433
21	0xbd9eb0f0	-0.07748592
22	0xbd88a4d9	-0.06672067
23	0xbd166e20	-0.036726117
24	0xbc3e3ac8	-0.011610694
25	0xbba9a546	-0.005177173
26	0xbb89ca90	-0.0042050555
27	0x3cb9ee86	0.022696745
28	0x3d1fe097	0.039032545
29	0xbda13629	-0.07871658
30	0x3da7b3f1	0.08188618
31	0x3d3fc786	0.04682114
32	0x3c4116e0	0.011785239
33	0xbdb4ce01	-0.088283546
34	0x3caecd49	0.021338122
35	0xbdaf2036	-0.085510656
36	0xbda5ae1f	-0.080898516
37	0xbb98bd56	-0.0046612425
38	0xbbfd9d35	-0.007739688
39	0xbda3f494	-0.08005634
40	0x3ce0f9b8	0.027462825
41	0xbd0a3b5a	-0.03374801
42	0xbcb2a81c	-0.021808676
43	0x3b96d3f9	0.004602906
44	0x3d889c0e	0.0667039
45	0x3d433be4	0.047664538
46	0xbd3f72d6	-0.046740375
47	0xbd9af03d	-0.07565353
48	0x3ca7fcfa	0.02050637
49	0xbd3313f5	-0.043720204
50	0x3c525846	0.012838429
51	0xbd2e30a8	-0.04252687
52	0x3ca6e9f6	0.020375233
53	0xbd246f23	-0.04014505
54	0xbdb6c8a4	-0.08924988
55	0xbd22b51c	-0.0397235
56	0xbd90122c	-0.07034716
57	0x3d7fc0aa	0.0624396
58	0xbb308e20	-0.0026940182
59	0x3bd962b0	0.006634079
60	0x3c5a3a0c	0.0133195035
61	0x3a8ac0d6	0.0010586034
62	0xbaa055bd	-0.0012232583
63	0x3db2f887	0.08738809
64	0xbd658193	-0.056031775
65	0xbdb02cac	-0.086022705
66	0x3d66f787	0.056388404
67	0xbd9711b8	-0.073764265
68	0xbd8fafab	-0.07015928
69	0xbc21e390	-0.009880915
70	0xbd59a0a6	-0.053131722
71	0x3cbd7dc0	0.023131251
72	0xbd1a8aec	-0.037730142
73	0xbc32cde9	-0.010913351
74	0xbd42abc8	-0.047527105
75	0xbd08ed84	-0.033429638
76	0x3b3af57c	0.0028527668
77	0xbda41c90	-0.0801326
78	0x3d21ce0c	0.039503142
79	0xbd9ad1bf	-0.07559537
80	0xbd96b354	-0.07358423
81	0x3d8415b7	0.06449454
82	0x3d0f6502	0.035008438
83	0xbd540e42	-0.05177141
84	0xbc630575	-0.0138562815
85	0xbd364c76	-0.044506513
86	0xbcf9efac	-0.030509792
87	0x3c4c81e8	0.012482144
88	0x3da4678b	0.08027562
89	0xbceb1618	-0.028697059
90	0x380268c1	3.1091975e-05
91	0xbc731658	-0.01483687
92	0xbd6079c3	-0.05480362
93	0x3d17865c	0.03699337
94	0xbd55e747	-0.052222516
95	0xbd99e0a9	-0.07513554
96	0x3d210d39	0.03931925
97	0xbd5b5a9a	-0.0535532
98	0xbd8fd2dc	-0.0702264
99	0xbc81e698	-0.015857026
100	0x3d91612d	0.07098613
101	0x3d818232	0.06323661
102	0xbd5dcdbd	-0.054151285
103	0xbbc3a3f6	-0.0059704734
104	0x3dae1669	0.08500368
105	0xba10048a	-0.00054938404
106	0xbc87cf5d	-0.01657837
107	0x3d53c55a	0.05170188
108	0x3d03838d	0.03210788
109	0xbc8f0434	-0.017458059
110	0xbd4a0640	-0.049322367
111	0x3c0b0368	0.008484699
112	0x3d04e23b	0.032442313
113	0x3d375e6a	0.044767775
114	0xbb733b87	-0.0037114338
115	0x3c0549f0	0.008135304
116	0x3d6cd363	0.05781878
117	0xbd15d1df	-0.0365771
118	0x3d8edae8	0.06975347
119	0xbda11192	-0.078646794
120	0x3d4f717e	0.050645344
121	0xbd0aef76	-0.033919774
122	0x3cba0891	0.022709163
123	0xbda94a22	-0.08266093
124	0xbd8e12d0	-0.06937182
125	0x3c6e9791	0.014562503
126	0x3d90e8be	0.07075642
127	0x3d9a7297	0.075413875
128	0x3cec39c4	0.028836139
129	0x3dd58bd7	0.10427063
130	0xbde16e61	-0.11007381
131	0x3c4e4190	0.0125888735
132	0x3d876cff	0.06612586
133	0x3b373d88	0.002796026
134	0x3d208ac6	0.039194845
135	0xbc58bd2d	-0.013228697
136	0x3d007cf4	0.031369165
137	0x3d2b9b51	0.04189617
138	0x3cad5c6c	0.021162234
139	0x3e2f0cb9	0.17094697
140	0xbcaceb3e	-0.021108266
141	0x3c8d8cb0	0.017279
142	0x3cb9c36a	0.022676188
143	0x3aaa4d5a	0.0012993023
144	0xbd99d8c3	-0.07512047
145	0xbd8d8878	-0.06910795
146	0xbbc14456	-0.005898039
147	0x3d8fcee3	0.070218824
148	0xbceaef5e	-0.028678592
149	0xbd23b465	-0.03996696
150	0xbd979c24	-0.07402828
151	0x3d87cce3	0.06630876
152	0x3de25a0e	0.11052333
153	0xbc991cc0	-0.018690467
154	0x3e2fc668	0.1716553
155	0xbd8f7aa0	-0.07005811
156	0x3d704310	0.058657706
157	0xbccd756f	-0.02508041
158	0x3c03e9c3	0.008051339
159	0x3b97e21a	0.0046351077
160	0xbd9c081c	-0.07618734
161	0x3cb355c5	0.021891484
162	0xbd194ecd	-0.037428666
163	0x3d2176ea	0.039420046
164	0x3dc0989e	0.094041094
165	0xbd89051c	-0.06690428
166	0xbd99da9f	-0.07512402
167	0xbe2975ca	-0.16548839
168	0xbdfe3486	-0.12412362
169	0x3db4f1f2	0.0883521
170	0x3f1b596f	0.6068334
171	0xbd102227	-0.03518882
172	0xbd8f603f	-0.07000779
173	0xbb93e05a	-0.004512829
174	0x3cb73fb0	0.022369236
175	0x3df778de	0.120836005
176	0x3d8b39c3	0.067981265
177	0x3d18b64c	0.037283227
178	0x3d0fb70f	0.035086688
179	0x3d96abc4	0.073569804
180	0x3d5f8920	0.054574132
181	0xbddfbbf4	-0.10924521
182	0xbdca1840	-0.098679066
183	0x3d9d93ff	0.07694244
184	0x3d3ed4d9	0.046589706
185	0xbd8ff828	-0.07029754
186	0xbde88085	-0.11352638
187	0xbd681b3c	-0.056666598
188	0x3d1cb9f8	0.03826329
189	0xbc53861c	-0.012910392
190	0x3d612df1	0.054975454
191	0xbda16b67	-0.078818135
192	0x3dcc96de	0.09989713
193	0x3e9e9403	0.309723
194	0x3c661556	0.014043173
195	0x3d865f3d	0.06561134
196	0x3ca22207	0.019791616
197	0xbd9afeff	-0.07568168
198	0x3b8c52e5	0.0042823427
199	0xbd3655d3	-0.044515442
200	0xbe0c8b52	-0.13725021
201	0x3d99d568	0.07511407
202	0x3dc27837	0.094955854
203	0x3a77c587	0.0009451736
204	0xbd42a0cc	-0.04751663
205	0x3dd7677d	0.10517786
206	0x3f2a8e20	0.66623116
207	0x3d37e34b	0.044894498
208	0xbd163efd	-0.036681164
209	0xbdada45b	-0.08478614
210	0x3c9147e3	0.017734474
211	0x3ebea8bd	0.37238112
212	0xbd4ea795	-0.050452787
213	0x3e157c1e	0.14598128
214	0x3b7a3804	0.003818036
215	0x3d4c4f04	0.049880043
216	0xbdaf0858	-0.08546513
217	0x3d128f39	0.03578112
218	0x3d339c96	0.043850504
219	0x3b17606d	0.0023098246
220	0x3dacb52d	0.08432994
221	0xbd100157	-0.035157528
222	0x3c36180a	0.01111413
223	0xbd469fcd	-0.04849224
224	0xbd77ccbe	-0.06049799
225	0xbda46993	-0.08027949
226	0xbd1ce3d7	-0.038303223
227	0xbd257487	-0.040394332
228	0x3dcf902e	0.10134922
229	0x3ef944e9	0.48685387
230	0xbd63d91f	-0.055626985
231	0x3d94bcf0	0.072625995
232	0xbc61cc38	-0.0137816
233	0x3d77af9d	0.060470212
234	0xbd268e26	-0.040662907
235	0xbbe6c8e3	-0.0070429905
236	0xbd2d6bfb	-0.042339306
237	0x3d0a3638	0.033743113
238	0x3dbb81d7	0.09155624
239	0x3d84aade	0.06477903
240	0x3dc805c9	0.097667284
241	0x3d810f6d	0.0630177
242	0x3dc5f1db	0.09665271
243	0xbd98220b	-0.07428368
244	0xbd5a4240	-0.053285837
245	0x3c69dc48	0.014273711
246	0xbd591fea	-0.05300895
247	0x3d7b013c	0.061280474
248	0x3dc7a8f3	0.097490214
249	0xbe040c3d	-0.12895294
250	0xbd7cf204	-0.06175424
251	0x3e09e0e3	0.13464694
252	0xbc2bf9d6	-0.010496577
253	0x3cf33d2d	0.029692257
254	0xbc936c35	-0.017995933
255	0xbe450147	-0.19238769

xy_to_r.input_to_hidden.2.bias f4 [128]
0	0x3d9cc77e	0.076552376
1	0xbd5a0aaf	-0.053232845
2	0xbb85cd4b	-0.0040833107
3	0xbd661399	-0.056171034
4	0xbbb6158e	-0.0055567687
5	0x3ba1ec85	0.0049415254
6	0xbd9d8e36	-0.0769314
7	0x3d6bb307	0.05754378
8	0x3cd7fc03	0.026365286
9	0x3b6d2f67	0.0036191584
10	0x3d20e67a	0.0392823
11	0xbd1d01c9	-0.03833178
12	0x3d61b724	0.055106297
13	0xbd614587	-0.054997947
14	0xbc83fa74	-0.016110636
15	0x3da7948f	0.08182632
16	0x3d7fde81	0.062468056
17	0x3d3f9806	0.04677584
18	0xbd51b26b	-0.051195543
19	0xbce8687a	-0.02837013
20	0xbda5c56d	-0.080942966
21	0x3c377a3a	0.011198575
22	0xbd772a6d	-0.060343195
23	0x3d49b833	0.04924793
24	0x3d541602	0.0517788
25	0xbbfafaec	-0.0076593067
26	0xbdc74dd5	-0.09731642
27	0xbb010a1a	-0.001968986
28	0x3d97ef78	0.07418722
29	0x3d576238	0.052583903
30	0x3d8bd43f	0.06827592
31	0x3d83ecbb	0.06441637
32	0x3d9ce2ef	0.07660472
33	0x3db10dd5	0.086452164
34	0x3d0d12a7	0.034441616
35	0x3db6d4d3	0.08927312
36	0xbc0e003f	-0.008667051
37	0x3d416e09	0.04722408
38	0x3d575c04	0.052577987
39	0xbda7db2a	-0.08196099
40	0xbd2a94b7	-0.04164573
41	0xbd60d056	-0.054886185
42	0x3d6385e9	0.05554763
43	0x3daa9af6	0.08330338
44	0x3d9ef695	0.077618755
45	0xbd432b34	-0.047648624
46	0x3cfc7ef8	0.030822262
47	0x3dacf618	0.08445376
48	0x3d65daf2	0.056117006
49	0x3dbe5dd5	0.09295241
50	0x3d2d4384	0.042300716
51	0xbd489a8c	-0.048975512
52	0x3d901d9a	0.07036896
53	0x3b496fd1	0.0030736814
54	0x3d371672	0.04469914
55	0xbd09aabd	-0.033610094
56	0xbbf6c35a	-0.007530612
57	0x3d918efc	0.0710735
58	0xbda2425d	-0.07922814
59	0xbd52fff1	-0.051513616
60	0xbb284d86	-0.0025680973
61	0x3dd0c43a	0.10193677
62	0xbd0ceea0	-0.034407258
63	0x3ccdf093	0.025139129
64	0x3df54ee5	0.119779386
65	0x3d53b65c	0.051687583
66	0x3c1f317b	0.009716387
67	0x3d2e8f98	0.04261741
68	0xbd9de712	-0.07710089
69	0xbd6a7ecc	-0.05724983
70	0x3ce45276	0.027871352
71	0x3b98a28d	0.0046580494
72	0x3d8e3a40	0.06944704
73	0x3cfbda8a	0.030743856
74	0x3c473b0a	0.012160072
75	0xbdafda1a	-0.085865214
76	0xbd2b53b2	-0.041827865
77	0x3cc2a281	0.023759129
78	0xbd79f6b4	-0.06102629
79	0x3ceb34c0	0.028711677
80	0x3d74500e	0.05964666
81	0xbe163ac4	-0.14670855
82	0x3d024fb1	0.03181428
83	0x3c2f2f50	0.0106924325
84	0xbb133d8f	-0.0022467112
85	0x3d62c755	0.05536588
86	0xbdb30c46	-0.08742575
87	0x3db80faa	0.08987363
88	0x3d0462aa	0.032320656
89	0x3dc34da9	0.09536297
90	0xbd185d28	-0.037198216
91	0xbd951173	-0.07278719
92	0xbd42e725	-0.047583718
93	0xba77e740	-0.0009456761
94	0x3cd189eb	0.02557846
95	0xbca597fe	-0.020214077
96	0x3ceccc52	0.028906021
97	0x3d960e9b	0.073270045
98	0xbcca02e0	-0.024659574
99	0x3d8ba481	0.06818486
100	0x3c0dc5d1	0.00865312
101	0x3a388ef5	0.0007040345
102	0xbcb69b6c	-0.022290908
103	0xbd5ceced	-0.053936888
104	0x3d327596	0.04356917
105	0x3d18d9d0	0.037317097
106	0x3dd59e82	0.104306236
107	0xbcbbc68f	-0.022921829
108	0xbd1349a8	-0.035958916
109	0x3d68ac12	0.056804724
110	0x3d46b94b	0.048516553
111	0xbd3c1e9b	-0.045927625
112	0x3d8812a8	0.066441834
113	0xbbc70058	-0.006073039
114	0x3d82956e	0.06376158
115	0xbc8c6e68	-0.01714249
116	0x3dabed99	0.083949275
117	0x3c8c45a0	0.017123044
118	0xbd116439	-0.03549597
119	0x3d1ea151	0.038728062
120	0xbd0d244e	-0.03445845
121	0xbda9acd1	-0.08284915
122	0xbcec39b9	-0.028836118
123	0xbd363540	-0.044484377
124	0x3d0b4835	0.03400441
125	0x3d8cec71	0.06881035
126	0xbdbb6689	-0.091504164
127	0xbd9294be	-0.071572766

xy_to_r.input_to_hidden.4.weight f4 [128, 128]
0	0x3daa8e98	0.08327979
1	0xbcec3cf3	-0.028837657
2	0xbd96be7d	-0.073605515
3	0xbd194df7	-0.03742787
4	0x3e1f69e5	0.1556774
5	0x3d4af14f	0.049546536
6	0x3d183d15	0.037167627
7	0x3d99894d	0.07496891
8	0x3dc0b657	0.094097786
9	0x3d171ca3	0.036892544
10	0x3c28b130	0.010296151
11	0x3dfd74ee	0.12375818
12	0xbd337573	-0.04381318
13	0x3d329215	0.043596346
14	0xbdfb35e8	-0.12266141
15	0x3d82f233	0.06393852
16	0xbb492a02	-0.0030695205
17	0xbc8da13c	-0.017288797
18	0xbc3ee333	-0.011650848
19	0x3e13e798	0.14443815
20	0x3d2ec53c	0.042668566
21	0x3e64db64	0.22349316
22	0x3d9d2acb	0.07674178
23	0x3c0f04f3	0.008729207
24	0x3c899be8	0.016797975
25	0xbb92456d	-0.0044638426
26	0x3da147b1	0.07875002
27	0xbbdf26b5	-0.006810034
28	0xbd08fc73	-0.03344388
29	0x3db1e45a	0.08686133
30	0xbd75eaa4	-0.060038224
31	0xbd9c9c99	-0.07647056
32	0xbd021c61	-0.031765345
33	0xbce18e8d	-0.027533794
34	0x3d939815	0.07206742
35	0xbd85018f	-0.06494438
36	0x3ce82455	0.028337637
37	0xbd9e3bef	-0.07726275
38	0x3a17a3e5	0.0005784615
39	0x3c0c1a68	0.008551218
40	0x3d3a88d6	0.045540653
41	0x3d943c00	0.072380066
42	0xbd965e07	-0.07342153
43	0xbdb321b1	-0.087466605
44	0x3d4d659c	0.05014573
45	0x3d7e7fee	0.062133722
46	0x3dc5a091	0.09649766
47	0x3da754c2	0.08170463
48	0x3d67ecd9	0.05662236
49	0x3d346f4a	0.044051446
50	0xbd5b18cd	-0.05349045
51	0xbcd26f92	-0.025687966
52	0xbd76d89c	-0.06026517
53	0xbba27fbb	-0.0049590743
54	0x3b5536a0	0.003253378
55	0x39d131d3	0.00039900708
56	0xbd2713e7	-0.040790465
57	0x3dc139ca	0.094348505
58	0x3da13e20	0.078731775
59	0x3d31d766	0.04341831
60	0xbd6e875f	-0.05823457
61	0xbd9cae3f	-0.07650422
62	0xbd0dcef6	-0.0346212
63	0x3bb621b3	0.0055582165
64	0xbd95fc1a	-0.07323475
65	0x3d4da9bd	0.050210703
66	0x3d209470	0.03920406
67	0x3e138ab2	0.14408377
68	0x3d611e3a	0.054960467
69	0x3d1df93d	0.03856777
70	0xbd76b634	-0.060232356
71	0x3c837570	0.01604721
72	0xbd94d76c	-0.07267651
73	0xbe0d36d2	-0.13790444
74	0xbc103ae8	-0.008803107
75	0x3ce69188	0.028145567
76	0x3c7ffea6	0.015624678
77	0xbdd81365	-0.10550574
78	0x3da4e4ca	0.080514506
79	0xbb0ca060	-0.0021457896
80	0x3d0dd7d2	0.03462965
81	0x3eb373e0	0.35049343
82	0x3c6ace78	0.014331453
83	0xbdcdcf8f	-0.10049354
84	0xbd3372e4	-0.04381074
85	0x3d80afb9	0.062835164
86	0xbccb103c	-0.024788015
87	0xbdaa8312	-0.08325781
88	0x3cdb4270	0.026765078
89	0x3bbae044	0.005703004
90	0x3d76bbf6	0.060237847
91	0x3d80d4cb	0.06290587
92	0x3c68c4e5	0.0142071
93	0xbc073030	-0.008251235
94	0xbcec9499	-0.02887945
95	0x3c9bae5b	0.019004038
96	0x3c96f439	0.018427001
97	0x3c8f3c9c	0.017484955
98	0xbe154aea	-0.14579359
99	0xbd3c3e41	-0.045957807
100	0xbc2886a4	-0.010286007
101	0x3d257434	0.040394023
102	0xbc2b3a70	-0.010450944
103	0xbdd6e9b2	-0.104937926
104	0x3dfe97c3	0.1243129
105	0xbb877a92	-0.0041344846
106	0x3ddffb22	0.10936572
107	0xbc78c4e4	-0.015183661
108	0xbd6437a3	-0.05571712
109	0x3ab640e4	0.0013904837
110	0x3d3c771f	0.04601204
111	0xbda93402	-0.08261873
112	0x3cf04201	0.029328348
113	0xbd13a50e	-0.03604608
114	0xbd7db93a	-0.061944224
115	0x3c8a12d4	0.016854681
116	0xbd924362	-0.071417585
117	0x3dd28195	0.10278622
118	0xbd887a8b	-0.06663998
119	0x3d1b70a9	0.037949238
120	0x3d5aa220	0.05337727
121	0xbdadda2f	-0.08488881
122	0xbd4a5f8f	-0.049407538
123	0x3d696456	0.056980453
124	0x3c6acf53	0.0143316565
125	0x3d1b4a40	0.037912607
126	0x3d6c0bc4	0.057628408
127	0xbd9d1d7a	-0.07671638
128	0x3c2418b0	0.010015652
129	0x3cf23560	0.029566467
130	0x3c908d8d	0.017645622
131	0x3c1ad6be	0.009450613
132	0xbd13aaa4	-0.036051407
133	0xbd3dcc29	-0.04633728
134	0xbc9e4753	-0.01932112
135	0xbd76e77b	-0.06027935
136	0xbdcca803	-0.09992983
137	0x3dbeef6a	0.09323008
138	0x3d8a7639	0.067608304
139	0xbcd5b72c	-0.02608832
140	0x3d4011f2	0.046892114
141	0xbd206d5d	-0.039166797
142	0xbd46ec84	-0.048565403
143	0x3db0761b	0.08616277
144	0x3b294790	0.0025830008
145	0xbd685c79	-0.056728814
146	0xbd0ba88c	-0.034096286
147	0x3d7c8db1	0.061658565
148	0x3ccc5ff6	0.024948101
149	0xbe44d39d	-0.19221349
150	0x3d9b7f0b	0.07592591
151	0xbd7bc80f	-0.061470088
152	0xbcf815ae	-0.030283775
153	0xbe16fd0f	-0.14744972
154	0xbe2cb33f	-0.16865252
155	0x3d827bdf	0.06371283
156	0x3c8c074f	0.017093329
157	0xbde670c3	-0.11251976
158	0xbcaf0a50	-0.021367222
159	0xbd36d910	-0.0446406
160	0xbc580480	-0.013184667
161	0x3d54ecd9	0.051983688
162	0xbe222011	-0.15832545
163	0x3d2ef4f9	0.042714093
164	0x3d6c4ae4	0.05768861
165	0x3cdb094f	0.026737837
166	0x3dbc3ce4	0.091913015
167	0x3d83c13d	0.06433342
168	0xbcd2d404	-0.025735863
169	0xbbc36541	-0.005962998
170	0xbda76cb3	-0.081750296
171	0xbc551599	-0.013005638
172	0x3d8015c5	0.06254152
173	0x3d44ef1e	0.048079602
174	0x3c9eee4d	0.01940074
175	0x3d930be5	0.07180003
176	0x3d8dfa7d	0.069325425
177	0x3c3d043d	0.011536655
178	0x3d5c276e	0.05374854
179	0xbdf22cce	-0.11824952
180	0xbd410800	-0.04712677
181	0xbb011784	-0.0019697854
182	0xbd147a8c	-0.036249682
183	0x3d4d8f7a	0.050185658
184	0xbded36ec	-0.11582741
185	0x3d6a6855	0.057228405
186	0xbdd407f5	-0.1035308
187	0x3d87204f	0.06597959
188	0xbde3a4b9	-0.11115403
189	0x3d7360ed	0.059418608
190	0x3e04f6f3	0.12984829
191	0x3d833c3a	0.06407972
192	0x3e3e52e0	0.18586302
193	0x3d6ed229	0.058305893
194	0xbd9b6795	-0.07588116
195	0x3b621095	0.0034494747
196	0xbd997bd2	-0.0749432
197	0xbd78c274	-0.06073232
198	0x3de74fe3	0.11294534
199	0xbbd84aea	-0.0066007273
200	0x3dbf3649	0.09336526
201	0x3e02d9b5	0.12778361
202	0xbda8b1ad	-0.08237014
203	0xbc21be18	-0.009871982
204	0xbdd1432b	-0.102178894
205	0x3e093481	0.13398935
206	0x3d87c270	0.06628883
207	0xbda673f3	-0.08127584
208	0xbd703b9a	-0.05865059
209	0xbe81225c	-0.25221527
210	0xbdab54b5	-0.08365766
211	0xbd4e794b	-0.050408643
212	0xbd35b5ee	-0.044362955
213	0x3c90f3d0	0.017694384
214	0x3ce76884	0.02824808
215	0xb9e5c480	-0.00043824688
216	0xbd9ed71a	-0.07755871
217	0x3c7eaa8f	0.015543594
218	0x3b8c68d9	0.0042849598
219	0xbd0c43b1	-0.034244243
220	0x3d282d60	0.041058898
221	0x3cd4b564	0.0259654
222	0xbc7d8a0c	-0.0154748075
223	0x3d1bde4b	0.038053792
224	0x3d76af12	0.060225554
225	0xbd90260c	-0.07038507
226	0x3e8b2604	0.2717744
227	0xbca24985	-0.019810447
228	0x3dc27796	0.094954655
229	0x3cef6404	0.029222496
230	0xbd949be6	-0.07256298
231	0x3d4ad64b	0.049520772
232	0xbe041fe1	-0.12902786
233	0xbb846aba	-0.004041043
234	0x3c96c002	0.018402103
235	0x3c504eda	0.012714112
236	0x3dac5070	0.0841378
237	0x3da5cbd1	0.080955155
238	0xbe53bdba	-0.20677844
239	0xbd94f523	-0.072733186
240	0xbd505d39	-0.050870154
241	0x3d95ab8b	0.0730811
242	0x3dd9495b	0.106096946
243	0xbdf4ae0d	-0.1194726
244	0x3cc9e782	0.024646524
245	0xbdf9fe4e	-0.12206708
246	0x3d187f89	0.037231002
247	0xbd41b13c	-0.047288164
248	0xbdcaef58	-0.099089324
249	0xbd7bb137	-0.061448302
250	0x3ddf4cf4	0.109033495
251	0xbd2194a7	-0.039448407
252	0xbdd92b4c	-0.10603961
253	0x3dd05e1b	0.10174199
254	0x3d8692f7	0.06571
255	0xbd38276d	-0.044959474

xy_to_r.input_to_hidden.4.bias f4 [128]
0	0xbdaf10a0	-0.08548093
1	0xbd9958b1	-0.0748762
2	0x3ca4ab76	0.02010129
3	0x3c086ec3	0.008327189
4	0x3d8f566f	0.06998908
5	0xbd10bad1	-0.035334412
6	0xbdc9dfff	-0.09857177
7	0xbb406eb0	-0.002936285
8	0xbc4672bb	-0.012112315
9	0xbdf34c7c	-0.118798226
10	0xbd5e02ff	-0.054202076
11	0xbc3f7e26	-0.011687791
12	0xbd8e7742	-0.069563404
13	0x3ba17217	0.0049269306
14	0xbd7070f0	-0.058701456
15	0xbb905bc2	-0.0044054696
16	0x3d258923	0.040413987
17	0xbbf59e32	-0.007495665
18	0x3d4e3117	0.050339784
19	0x3d85a83f	0.06526231
20	0xbcf7f3c2	-0.0302676
21	0xbd12decb	-0.035857003
22	0x3d844413	0.064582966
23	0x3d459385	0.04823639
24	0xbd107d61	-0.03527582
25	0x3d905a78	0.070485055
26	0x3cf86af2	0.030324433
27	0x3d950696	0.07276647
28	0xbd70d3d5	-0.05879577
29	0xbc476c27	-0.012171782
30	0xbdc2e78e	-0.09516822
31	0x3c712bef	0.014719947
32	0x3cb30543	0.021853095
33	0x3d858d17	0.065210514
34	0x3db333f3	0.08750143
35	0x3c98e0ad	0.018661821
36	0x3b552db4	0.0032528462
37	0xbcadf083	-0.021232849
38	0xbd09af66	-0.03361454
39	0xb991d66d	-0.00027816315
40	0x3b5b0b14	0.003342335
41	0xbd416983	-0.047219764
42	0x3d06e517	0.03293332
43	0x3ba5cc59	0.0050597605
44	0x3c97ea23	0.018544262
45	0xbdae521e	-0.08511756
46	0x3da43e4f	0.08019697
47	0xbda3a0c4	-0.07989648
48	0xbd69666d	-0.056982446
49	0xbd9b713f	-0.07589959
50	0x3d8f5763	0.069990896
51	0xbd2928fb	-0.041298848
52	0x3c931ea3	0.017958945
53	0xbbfcdebd	-0.007716982
54	0x3d99d060	0.075104475
55	0x3d93f0dd	0.072236754
56	0xbb82e948	-0.0039950944
57	0x3d79956a	0.060933508
58	0x3d1cab53	0.038249325
59	0x3d1aa5d7	0.037755813
60	0x3c8c78f9	0.017147528
61	0x3c8d60fe	0.017258164
62	0xbd02f7f0	-0.031974733
63	0xbc64c2df	-0.0139624765
64	0x3da9ee5c	0.082974166
65	0xbcc39deb	-0.023879012
66	0x3ce66d8a	0.028128404
67	0xbc502f74	-0.012706626
68	0xbd2dfaea	-0.04247562
69	0x3d376a11	0.044778887
70	0xbdb2f647	-0.0873838
71	0xbd3d41fd	-0.04620551
72	0x3dce6f2f	0.100798
73	0xbd865f9c	-0.06561205
74	0xbc0f4f86	-0.008746987
75	0x3d0c9fd6	0.03433212
76	0xbda16e37	-0.0788235
77	0xbd3d223a	-0.04617522
78	0x3cb95b59	0.022626566
79	0x3bea490c	0.007149821
80	0x3d1bdca1	0.038052205
81	0x3d4409a9	0.047860775
82	0xbcabd500	-0.02097559
83	0xbd69d01c	-0.057083234
84	0x3d3babd6	0.045818172
85	0x3d734344	0.05939032
86	0x3d482aa8	0.048868805
87	0x3ca5ab89	0.020223396
88	0x3d576ecc	0.0525959
89	0x3da4bbf8	0.08043665
90	0xbd80756b	-0.06272396
91	0x3d90fa8d	0.07079039
92	0xbc6cab8d	-0.014445198
93	0x3d169786	0.036765598
94	0x3b4e726b	0.0031501304
95	0xbd9bfd87	-0.07616716
96	0xbd9a69d5	-0.07539717
97	0xbbfaa226	-0.007648724
98	0xbcca6b5f	-0.024709402
99	0xbd8b336f	-0.067969196
100	0xbd63ca9b	-0.05561314
101	0x3c89e9ed	0.016835177
102	0xbb9ab9ba	-0.0047218474
103	0xbcf8c738	-0.030368432
104	0x3d14e3f0	0.03635019
105	0x3ca9c3b3	0.0207232
106	0x3dc4d952	0.09611763
107	0x3cf561a9	0.029953795
108	0xbd8e7d30	-0.06957471
109	0x3b2a3981	0.0025974216
110	0xbc9ed586	-0.019388925
111	0xbc36ceaa	-0.011157671
112	0xbd953145	-0.07284788
113	0x3c803a10	0.015652686
114	0x3da7ee64	0.08199766
115	0xbd0e1437	-0.034687247
116	0x3dff9434	0.124794394
117	0x3ce15b64	0.027509399
118	0xbda26ee1	-0.07931305
119	0x3dc1dd07	0.09465986
120	0x3d5adc7c	0.053432927
121	0xbd4ad55e	-0.04951989
122	0xbdce3891	-0.10069383
123	0x3d2fcf97	0.042922582
124	0x3a457082	0.00075317186
125	0x3ddcac01	0.10774995
126	0x3d0f35ab	0.03496329
127	0xbc87bb44	-0.016568787

r_to_mu_sigma.r_to_hidden.weight f4 [128, 128]
0	0xbd3fe552	-0.046849556
1	0x3e15196c	0.14560479
2	0x3a8442af	0.0010090674
3	0xbd8b4c0a	-0.06801613
4	0x3e0999e0	0.13437605
5	0xbd8564ab	-0.065133415
6	0x3c38a9c4	0.011270944
7	0x3d967915	0.07347313
8	0xbcc8cdd5	-0.02451221
9	0x3d79a1e2	0.0609454
10	0xbbe11039	-0.006868389
11	0xbde62a9c	-0.11238596
12	0xbc8415cd	-0.016123677
13	0x3d42d0b6	0.047562324
14	0xbd148dc7	-0.036268022
15	0xbd362470	-0.044468343
16	0xbe0941fb	-0.13404076
17	0xbda8aba3	-0.08235862
18	0xbd308e32	-0.043104358
19	0xbd88f97d	-0.06688211
20	0x3d70ee77	0.058821168
21	0xbe054395	-0.13014062
22	0xbd9d7813	-0.07688918
23	0x3c2da808	0.010599144
24	0x3da51342	0.08060314
25	0x3dc39569	0.09549982
26	0x3c272b5d	0.01020321
27	0xbdc0270e	-0.09382449
28	0x3cac69fc	0.021046631
29	0x3e065957	0.13120018
30	0xbddee499	-0.10883445
31	0x3d1af189	0.037828002
32	0x3d9634f5	0.073343195
33	0xbd7c1488	-0.061543018
34	0x3dbb5df3	0.09148779
35	0x3d9c7293	0.07639041
36	0xbe25a126	-0.16174755
37	0x3d9a58ab	0.07536443
38	0x3e2bf691	0.16793276
39	0x3db1506f	0.086579196
40	0xbc90647d	-0.017626042
41	0xbd3dac64	-0.046306983
42	0x3d00d083	0.031448852
43	0x3d83e1fc	0.064395875
44	0x3ca28a49	0.01984133
45	0xbd20857b	-0.039189797
46	0x3daf0226	0.08545332
47	0xbdaa0ebf	-0.08303594
48	0x3d9fe06e	0.078064784
49	0xbdb84aca	-0.0899864
50	0xbd9514c5	-0.07279352
51	0x3c115786	0.008870965
52	0xbdab8b0f	-0.08376133
53	0x3d5ee18f	0.05441433
54	0x3d459e24	0.048246518
55	0xbdfbee3b	-0.12301298
56	0x3de9e4a3	0.11420562
57	0xbbe32513	-0.00693191
58	0x3b93bf7d	0.004508911
59	0x3dbd0fb2	0.09231509
60	0x3d8fcd85	0.070216216
61	0x3baada57	0.0052140164
62	0x3db83322	0.08994128
63	0xbd5be92f	-0.053689178
64	0x3cc241fb	0.023713103
65	0x3dab5432	0.08365668
66	0xbac25dc1	-0.0014828966
67	0x3d993d12	0.07482351
68	0xbcdabbf0	-0.026700944
69	0xbc45649a	-0.012047911
70	0x3d05bc3c	0.032650217
71	0xba2d5ab5	-0.00066129427
72	0xbe028ca4	-0.12748963
73	0xbcec3438	-0.028833494
74	0xbd979d2a	-0.074030235
75	0xbcb3933e	-0.021920796
76	0xbd95324b	-0.07284983
77	0xbcdbc073	-0.026825165
78	0x3d52e08c	0.051483676
79	0xbd902d75	-0.0703992
80	0x3d998292	0.074956074
81	0x3ce25896	0.027630132
82	0xbcf2a0ea	-0.029617745
83	0x3d85e6dc	0.065381736
84	0x3d72cb0a	0.059275664
85	0x3d2dcef4	0.042433694
86	0x3e036159	0.12830104
87	0x3d8f548c	0.06998548
88	0x3bc4889e	0.0059977314
89	0xbd07800a	-0.033081092
90	0x3c82251d	0.015886838
91	0xbb262e2f	-0.0025357117
92	0xbe004080	-0.12524605
93	0xbe77bfb0	-0.24194217
94	0xbd8cfbd2	-0.068839684
95	0x3c9d1791	0.019176276
96	0x3b1c8653	0.0023883774
97	0x3b28ef3c	0.002577736
98	0x3d86479d	0.06556628
99	0xbd4563ca	-0.04819087
100	0xbc0c61df	-0.008568256
101	0x3de15f32	0.11004485
102	0xbda0dec8	-0.07854992
103	0x3c930965	0.017948816
104	0xbd99dc69	-0.07512743
105	0xbd67788f	-0.056511458
106	0x3c85fdb9	0.016356336
107	0xbc96948e	-0.018381383
108	0x3dabfe61	0.08398128
109	0xbd80525e	-0.0626571
110	0x3d14fba4	0.036372796
111	0x3dd56778	0.10420126
112	0x3c7a67e0	0.015283555
113	0xbe3763e8	-0.17909205
114	0xbb238656	-0.0024951897
115	0x3d709ca7	0.058743145
116	0x3d99c410	0.07508099
117	0xbc863946	-0.016384732
118	0x3de021d1	0.1094395
119	0xbcfe6314	-0.031053104
120	0x3d674930	0.05646628
121	0xbcfce003	-0.030868536
122	0xbd77ceb9	-0.06049988
123	0x3cff01f8	0.031128868
124	0xbd9a5e4f	-0.07537519
125	0xbd57ca4d	-0.052683163
126	0x3dc25089	0.09488017
127	0xbdabeb2e	-0.08394466
128	0x3c28a1fa	0.0102925245
129	0x3dca9eee	0.09893595
130	0x3d0cacab	0.034344357
131	0xbe1d0026	-0.15332088
132	0xbdc72b79	-0.097250886
133	0xbe05a939	-0.13052835
134	0xbda2116e	-0.07913481
135	0x3dbd17d6	0.09233062
136	0xbd3510d4	-0.0442055
137	0xbd2f60d1	-0.04281694
138	0xbca5f7e1	-0.0202598
139	0x3d2b6aff	0.041850086
140	0x3d549976	0.051904164
141	0xbd95d2d2	-0.073156014
142	0xbdb59e8e	-0.088681325
143	0x3cfc448a	0.0307944
144	0xbd376af1	-0.04477972
145	0x3db43d3f	0.08800744
146	0x3c9eee8b	0.019400856
147	0x3d89d81b	0.06730672
148	0xbd422859	-0.04740176
149	0xbdeffd4f	-0.11718237
150	0x3e139256	0.14411291
151	0x3c9ee228	0.01939495
152	0xbd1b69a3	-0.03794254
153	0x3b974520	0.0046163946
154	0xbda507bd	-0.080581166
155	0x3d8b3d16	0.067987606
156	0x3d8d0a48	0.068867266
157	0x3e188c57	0.14897285
158	0x3dc1a047	0.094543986
159	0xbddfb4e7	-0.10923176
160	0xbd834fc7	-0.06411701
161	0xbe5b6e6b	-0.2142884
162	0xbb088fcf	-0.002083767
163	0x3c277559	0.010220849
164	0xbe1fce6d	-0.15606089
165	0xbd43ef33	-0.04783554
166	0xbd994378	-0.07483572
167	0x3d968764	0.073500425
168	0x3d8c1191	0.06839288
169	0xbdcdf6a8	-0.100568116
170	0x3dbe5646	0.09293799
171	0x3d866c63	0.06563642
172	0xbe2ce51a	-0.1688427
173	0xbdb5b9fb	-0.088733636
174	0xbdcadbc4	-0.09905198
175	0xba75ac74	-0.0009371706
176	0x3d015804	0.03157808
177	0xbe105bcf	-0.14097522
178	0x3db49554	0.088175446
179	0x3d99e01a	0.07513447
180	0xbb443359	-0.0029937832
181	0xbd0d2933	-0.03446312
182	0x3d0ed8ac	0.034874603
183	0xbd074656	-0.033026062
184	0x3d9bbe20	0.07604623
185	0x3d4c9546	0.049947046
186	0x3d26a741	0.04068685
187	0x3d78724f	0.06065589
188	0xbcc1323e	-0.023583528
189	0xbd990d35	-0.07473222
190	0xbde14059	-0.109986015
191	0xbd712559	-0.058873508
192	0x3d667184	0.0562606
193	0x3b9ca229	0.004780073
194	0x3d643aa7	0.055719998
195	0x3dca4c54	0.0987784
196	0x3cd851ce	0.026406195
197	0xbbc72d11	-0.0060783704
198	0xbd93a47a	-0.07209106
199	0x3c03f01d	0.008052853
200	0xbd3110d3	-0.043228935
201	0x3d8b74a8	0.0680936
202	0x3cdcc8cd	0.026951218
203	0x3d80aaab	0.06282552
204	0x3d5da930	0.054116428
205	0x3d89da29	0.06731064
206	0x3d7e1e65	0.062040705
207	0xbce11676	-0.02747653
208	0x3df90062	0.12158276
209	0x3c3037ed	0.010755521
210	0xbe09d840	-0.13461399
211	0xbe06924b	-0.13141744
212	0x3d8b1bbf	0.067924015
213	0x3c19d164	0.0093883015
214	0x3e25b912	0.1618388
215	0xbdb2c572	-0.08729066
216	0xbc4c1373	-0.012455809
217	0x3bfd7ead	0.007736048
218	0xbbbd38b0	-0.00577458
219	0x3d0b6e39	0.034040663
220	0x3ced8d08	0.028997913
221	0x3c91b1d3	0.017784989
222	0x3e3e8585	0.18605621
223	0xbdf62af7	-0.12019914
224	0xbdf448cb	-0.11927947
225	0x3d8f8bc6	0.070090815
226	0xbd63f703	-0.05565549
227	0xbd666d65	-0.05625667
228	0xbcd91d72	-0.026503298
229	0x3ab6091a	0.001388821
230	0xbd092814	-0.033485487
231	0x3ce2977f	0.02766013
232	0x3d9b5ddc	0.07586262
233	0xbe337f85	-0.17529114
234	0xbd31ed28	-0.04343906
235	0x3d819759	0.063276954
236	0xbc371980	-0.011175513
237	0x3cff3481	0.031152966
238	0xbc1c3642	-0.00953442
239	0xbd81b753	-0.063337944
240	0xbd58b343	-0.052905332
241	0xbdaf43ec	-0.08557877
242	0xbe506ee3	-0.203548
243	0xbdb9f9ec	-0.09080872
244	0x3c9d62de	0.019212183
245	0xbd375722	-0.04476083
246	0x3e6782ba	0.22608462
247	0xbe28d004	-0.16485602
248	0x3d15070a	0.036383666
249	0xba17e374	-0.0005794086
250	0x3c9a1c1a	0.018812228
251	0x3e5f5223	0.21808676
252	0xbced801b	-0.02899175
253	0x3d97d94a	0.074144915
254	0xbd31b42e	-0.043384723
255	0x3dab3273	0.08359232

r_to_mu_sigma.r_to_hidden.bias f4 [128]
0	0xbd21b75d	-0.03948151
1	0xbc8f6e96	-0.017508786
2	0xbda19165	-0.0788906
3	0x3dd5f364	0.10446814
4	0xbd46e9d7	-0.04856285
5	0x3d3d8a67	0.04627457
6	0xbd20fc10	-0.039302886
7	0x3dddcc28	0.10829955
8	0x3d664ecc	0.05622749
9	0x3d42ea6e	0.04758685
10	0x3c0adb41	0.008475126
11	0x3ddb7723	0.10716083
12	0x3cc98ddd	0.024603778
13	0xbd1c15f0	-0.03810686
14	0xbb82a78a	-0.0039872574
15	0x3d4095e2	0.04701794
16	0x3d99e660	0.07514644
17	0x3cf0a98d	0.029377723
18	0x3bc42334	0.005985642
19	0x3da9c598	0.08289641
20	0x3dcc082d	0.09962497
21	0x3e08afe4	0.13348347
22	0x3dda2c43	0.106529735
23	0xbd9c2275	-0.0762376
24	0xbcbd7f58	-0.023132011
25	0x3e0a5400	0.13508606
26	0xbd24ac68	-0.040203482
27	0x3d4ee4f1	0.050511304
28	0xbb980d8d	-0.0046402873
29	0xbdb6b851	-0.08921874
30	0x3d01144f	0.03151351
31	0x3ca5e450	0.02025047
32	0xbd964c70	-0.07338798
33	0x3d009a39	0.03139708
34	0x3d2af2c2	0.04173542
35	0xb9a71466	-0.0003186792
36	0x3dbae589	0.091258116
37	0x3dd94760	0.10609317
38	0xbcbcab87	-0.02303101
39	0x3d88a37a	0.06671806
40	0x3da53e4b	0.08068522
41	0x3d9e2fc7	0.077239566
42	0x3c97fc98	0.018553063
43	0x3db93f32	0.09045257
44	0x3c1de7f2	0.00963782
45	0x3d94d850	0.07267821
46	0x3d6711cd	0.05641346
47	0xbd862d5b	-0.065516196
48	0xbcd5ad07	-0.026083482
49	0x3d8c8810	0.06861889
50	0xbc82cdd3	-0.015967285
51	0xbd54a506	-0.05191519
52	0x3d43ff48	0.047850877
53	0xbd170bb1	-0.036876384
54	0xbd3e9515	-0.046528894
55	0xbd6676de	-0.056265704
56	0x3d926fed	0.071502544
57	0xbd45cf58	-0.04829344
58	0xbd1c954c	-0.038228318
59	0x3d164132	0.03668327
60	0x3d4b9b8c	0.049708888
61	0x3d8fa15f	0.07013201
62	0x3d152815	0.03641518
63	0xbd829426	-0.06375913
64	0x3e0a19f7	0.13486467
65	0xbd19927e	-0.03749322
66	0xbdbd57c9	-0.09245259
67	0xbcab95a4	-0.020945378
68	0x3ccf87d2	0.025333319
69	0xbdd6e397	-0.10492628
70	0x3d97e483	0.07416632
71	0x3c92e120	0.017929614
72	0x3c6a83e9	0.014313676
73	0x3d9159a8	0.07097179
74	0x3c114075	0.008865465
75	0x3e051e45	0.12999828
76	0x3c4632a8	0.012097038
77	0x3daf123c	0.085484
78	0xbcbf8467	-0.023378564
79	0x3dabb2ba	0.08383699
80	0xbd411246	-0.047136568
81	0x3d7c9f23	0.061675202
82	0xbd5311e4	-0.051530734
83	0xbdc3e080	-0.09564304
84	0xbdcef2df	-0.10104918
85	0xbd985d31	-0.0743965
86	0x3da9ff08	0.083005965
87	0x3d0554b5	0.032551486
88	0x3d59ad7a	0.053143956
89	0x3b8fdac4	0.0043900926
90	0xbd80b019	-0.06283588
91	0xbd81f8e0	-0.06346297
92	0x3d8bdcc4	0.06829217
93	0x3e115d94	0.14195853
94	0x3d41fb1c	0.047358617
95	0xbd0051c6	-0.031327985
96	0x3da1109e	0.078644976
97	0xbd2181b2	-0.039430328
98	0x3cc879bb	0.024472108
99	0xbcef7101	-0.02922869
100	0x3de48945	0.111589946
101	0xbd38270e	-0.04495912
102	0x3dec0ed7	0.11526268
103	0x3c945881	0.018108608
104	0x3deed96c	0.11662564
105	0x3e1080e3	0.14111666
106	0xbcf0bd0a	-0.029387016
107	0x3d224038	0.039612025
108	0xbd7f854e	-0.06238299
109	0xbce4ea9e	-0.027943905
110	0xbd6a4c4b	-0.057201665
111	0x3d836abc	0.06416842
112	0x3d953f2d	0.072874404
113	0xbdb6f349	-0.08933122
114	0x3c973f4a	0.018462796
115	0x3d2f468b	0.042791884
116	0xbc16452a	-0.009171763
117	0x3ca0360f	0.019557027
118	0x3cfb5506	0.03068019
119	0xbd8d6260	-0.06903529
120	0x3d2eca9c	0.042673692
121	0x3d041aeb	0.032252233
122	0xbd774e42	-0.060377367
123	0xbd738c7f	-0.05946016
124	0x3dd922ab	0.106023155
125	0x3dc8a852	0.097977296
126	0x3da1c19d	0.07898257
127	0x3ddd0c6a	0.107933834

r_to_mu_sigma.hidden_to_mu.weight f4 [128, 128]
0	0xbe9e8839	-0.30963305
1	0x3e3dd451	0.18538024
2	0x3cdf5338	0.027261361
3	0x3d44448a	0.047916926
4	0xbd7ccef0	-0.06172079
5	0x3cc5582c	0.024089895
6	0xbd19f708	-0.037589103
7	0xbcb0eafa	-0.02159642
8	0x3ef03697	0.4691665
9	0x3ca3de4b	0.020003458
10	0xbb26b370	-0.0025436543
11	0xbd1ac9b8	-0.03779003
12	0xbc2afdec	-0.010436516
13	0xbd91e31a	-0.07123394
14	0xbcb8bfd0	-0.0225524
15	0x3d83a2a2	0.06427504
16	0xbdbc3fbd	-0.091918446
17	0xbd6a9025	-0.057266373
18	0x3e329bca	0.17442241
19	0xbd023a0b	-0.031793635
20	0x3d9c1a5f	0.076222174
21	0xbd85e8df	-0.06538557
22	0xbd8c33c5	-0.06845812
23	0xbccc479d	-0.024936492
24	0x3a8f6d35	0.001094258
25	0xbab4ab35	-0.0013783934
26	0x3d3a0bff	0.045421597
27	0x3d312a10	0.043253005
28	0x3d22907d	0.039688576
29	0xbc093ff9	-0.008377069
30	0xbd9edc54	-0.07756868
31	0x3da2d520	0.079508066
32	0x3e5c34ba	0.21504489
33	0x3e95c486	0.29251498
34	0x3d99268c	0.07478055
35	0x3d29ae53	0.041426014
36	0xbd4c26bd	-0.04984163
37	0x3c6a6e0f	0.014308467
38	0xbdbc0384	-0.09180358
39	0x3ce8cb00	0.02841711
40	0xbd0943d0	-0.033511937
41	0x3e0f228e	0.13978025
42	0xbcd6edfd	-0.026236529
43	0xbcdff2cb	-0.027337452
44	0x3e148ec5	0.14507587
45	0x3c72a7f3	0.01481055
46	0xbd7ff897	-0.062492933
47	0x3d554a67	0.05207291
48	0x3d234ee3	0.039870154
49	0xbb511231	-0.0031901712
50	0x3debd3a3	0.11514976
51	0xbde7bcab	-0.113152824
52	0x3b56f871	0.0032801891
53	0xbddaa689	-0.10676295
54	0x3d8d35d5	0.06895033
55	0x3d0a3a6d	0.033747125
56	0xbdd739f7	-0.10509103
57	0xbe3b4168	-0.18286669
58	0xbda4f5c8	-0.080546916
59	0xbc53f683	-0.012937191
60	0x3cef542c	0.029214941
61	0x3d7c4358	0.06158766
62	0x3e031d1d	0.12804075
63	0xbe0fb70e	-0.14034674
64	0xbc9ae58c	-0.018908285
65	0xbe26023d	-0.16211791
66	0x3e2999dc	0.16562599
67	0x3da25d9c	0.07928011
68	0x3d13548b	0.0359693
69	0x3e117eb4	0.1420849
70	0xbcb70bc4	-0.022344477
71	0x3d990cac	0.0747312
72	0x3de56290	0.1120044
73	0x3d55cb01	0.052195553
74	0xbd97cdb9	-0.07412285
75	0xbd8d82c1	-0.06909705
76	0xbd51cf4d	-0.051223088
77	0xbd18084e	-0.037117295
78	0x3e674f32	0.22588804
79	0x3d74d9b7	0.05977794
80	0x3e142ccd	0.14470215
81	0xbdfea72c	-0.12434229
82	0x3daa5909	0.08317763
83	0x3caf6750	0.021411568
84	0x3e929537	0.28629467
85	0xbd17e277	-0.037081208
86	0x3d99c86e	0.07508932
87	0x3e4ca18d	0.19983502
88	0x3da48fe9	0.08035261
89	0xbe826a32	-0.25471646
90	0x3d8c8cb3	0.06862774
91	0x3e82a0ab	0.25513205
92	0x3d82e708	0.06391722
93	0x3d5cdae9	0.053919706
94	0xbe9a4fb2	-0.30138928
95	0x3d4cdbcf	0.050014313
96	0x3d5a9976	0.053369008
97	0xbe81e1c4	-0.25367558
98	0xbdc1aee8	-0.09457189
99	0x3d5ebde0	0.054380298
100	0xbcfedb11	-0.031110318
101	0xbdd5c159	-0.10437269
102	0xbbf4507e	-0.0074558845
103	0x3da84d61	0.08217884
104	0x3c4ea0f9	0.012611621
105	0x3dadbbc3	0.08483078
106	0xbe53b9d8	-0.20676363
107	0xbd27be67	-0.040953066
108	0xbd5d5105	-0.054032344
109	0xbec3a604	-0.38212597
110	0x3d9ef776	0.07762043
111	0x3da8bce5	0.08239154
112	0x3d3cb412	0.046070166
113	0x3d1eef66	0.038802527
114	0xbd9fa8b2	-0.07795848
115	0x3db597ee	0.08866869
116	0xbb8bc045	-0.0042648637
117	0xbe6bd358	-0.2302984
118	0x3e94c996	0.29060048
119	0x3e2861c0	0.16443539
120	0x3f080d8d	0.53145677
121	0xbe18ba1b	-0.14914744
122	0x3bcc8d16	0.0062424047
123	0xbd4fec2c	-0.05076234
124	0xbcdbfa30	-0.026852697
125	0xbd0f3802	-0.034965523
126	0x3de44dd4	0.11147657
127	0x3d79e4a8	0.06100908
128	0x3e805e1e	0.25071806
129	0xbe2bb58a	-0.1676847
130	0x3ce2915c	0.027657203
131	0xbd663257	-0.05620035
132	0x3db4b9d2	0.08824505
133	0x3d376630	0.044775188
134	0x3d1d278e	0.0383678
135	0xbd58fcb2	-0.052975364
136	0xbee36d36	-0.4441926
137	0xbc7a9173	-0.015293467
138	0xbb885026	-0.004159945
139	0x3d96050f	0.073251836
140	0x3b758369	0.003746236
141	0x3d304329	0.0430328
142	0xbc7e4c68	-0.015521146
143	0xbdfb9f9b	-0.12286302
144	0x3df9a4ef	0.12189662
145	0x3d700282	0.05859614
146	0xbe15403a	-0.14575282
147	0x3da2a330	0.07941282
148	0x3d438dfe	0.047742836
149	0xbda280cd	-0.07934723
150	0xbba700b2	-0.0050965184
151	0x3c4b2848	0.0123997405
152	0x3ccb3082	0.024803404
153	0x3cee9008	0.029121414
154	0xbe153902	-0.14572528
155	0xbce975ee	-0.028498616
156	0xbd1409ad	-0.03614204
157	0x3d677068	0.056503683
158	0xbc929544	-0.017893441
159	0x3bf85bef	0.0075793187
160	0xbe6846cd	-0.22683258
161	0xbe6a6496	-0.22889933
162	0x3b588e25	0.003304371
163	0xbbef8af4	-0.0073102657
164	0x3d876243	0.06610539
165	0x3cb181e0	0.021668375
166	0x3e00696b	0.12540214
167	0xbd23e7da	-0.040016033
168	0xbdb5f199	-0.08883972
169	0xbe3d8019	-0.18505897
170	0x3c91f908	0.017818943
171	0x3de56595	0.11201016
172	0xbe0fc16d	-0.1403863
173	0x3bf661e4	0.0075189937
174	0x3deb37f8	0.114852846
175	0x3ccf8b1e	0.025334891
176	0xbda7b25c	-0.08188316
177	0xbd211cae	-0.03933399
178	0xbd7d7fa0	-0.06188929
179	0x3da1153c	0.07865378
180	0xbc918fb7	-0.017768724
181	0x3d77068d	0.06030898
182	0xbc5afa72	-0.013365375
183	0x3b8e00d0	0.004333593
184	0x3d02c1ec	0.03192322
185	0x3e29b5e4	0.16573292
186	0xbd800731	-0.06251372
187	0x3c7ea3d4	0.015541989
188	0xbd811712	-0.063032284
189	0xbdf48281	-0.11938954
190	0xbda1b805	-0.07896427
191	0x3de64ea9	0.11245472
192	0xbcdffd5b	-0.027342489
193	0x3e007325	0.12543924
194	0xbe4f3c76	-0.20237908
195	0xbe0a1f6e	-0.13488552
196	0x3d8bff33	0.06835785
197	0xbe286183	-0.16443448
198	0x3ce10035	0.027465919
199	0xbd9aba8f	-0.075551145
200	0xbd9ff38e	-0.07810126
201	0xbd2c6454	-0.042087868
202	0x3e1c8f89	0.1528913
203	0xbd38e300	-0.04513836
204	0xbd7dd72c	-0.061972782
205	0xbd9579fd	-0.07298658
206	0xbe84281d	-0.25811854
207	0xbcb45be2	-0.02201647
208	0xbe172695	-0.14760812
209	0x3db11b7f	0.086478226
210	0xbde026a5	-0.10944871
211	0x3ca86a11	0.020558389
212	0xbe7a2a03	-0.24430089
213	0x3c81d390	0.015847951
214	0xbdc11e8f	-0.09429657
215	0xbe4f2425	-0.20228632
216	0xbcb66a08	-0.022267357
217	0x3e67ba7b	0.2262973
218	0xbd9624ae	-0.07331215
219	0xbea0b78d	-0.31390038
220	0x3d25bda7	0.04046407
221	0xbd7f1207	-0.06227305
222	0x3eaa9fa1	0.33324912
223	0xbbd212ef	-0.0064109485
224	0x3db50d25	0.08840398
225	0x3e4f95a0	0.20271921
226	0x3c006c43	0.007838312
227	0xbdd0e8e6	-0.10200672
228	0xbb0fb13f	-0.0021925715
229	0x39122c8f	0.00013940244
230	0xbd560b69	-0.052256975
231	0xbd7b390b	-0.061333697
232	0x3d239aab	0.039942425
233	0x3cb5d490	0.022196084
234	0x3e7cb005	0.24676521
235	0x3d07e84d	0.033180524
236	0x3da40b6b	0.0800999
237	0x3ec97f29	0.39354828
238	0xbd1fdb70	-0.03902763
239	0xbc13dbfa	-0.0090246145
240	0x3a9bfcff	0.001190096
241	0x3bbf1c9a	0.005832267
242	0x3e4069e0	0.18790388
243	0xbd46f11e	-0.04856979
244	0x3d8053fe	0.0626602
245	0x3e4412de	0.19147822
246	0xbe9d8340	-0.30764198
247	0xbe12ddf7	-0.14342485
248	0xbf0fc613	-0.5616161
249	0x3e639c79	0.22227658
250	0xbd2cf369	-0.04222432
251	0xbc1c588f	-0.009542598
252	0xbd408af6	-0.047007523
253	0xbc0fe63e	-0.008782921
254	0xbdda7f17	-0.10668772
255	0x3d444938	0.04792139
